…
All outputs : {'car_ms_res_nb': 0.8815904259681702, 'car_ms_inout_nb': 0.6539079546928406, 'car_ms_idf_nb': 0.12962204217910767, 'att_res': 0.420253187417984, 'att_inout': 0.4897891879081726, 'att_idf': 0.15783928334712982, 'er_0': 1.0494126081466675, 'er_10': 0.24989640712738037, 'er_20': 0.3057589828968048, 'er_idf': 0.10298589617013931}
Summary :

Model: "functional_1"
+----------------------------------------------------------------------------------------------------------+
| Layer (type)                  | Output Shape              |         Param # | Connected to               |
|-------------------------------+---------------------------+-----------------+----------------------------|
| input_layer_1 (InputLayer)    | (None, 12)                |               0 | -                          |
|-------------------------------+---------------------------+-----------------+----------------------------|
| dense_12 (Dense)              | (None, 512)               |           6,656 | input_layer_1[0][0]        |
|-------------------------------+---------------------------+-----------------+----------------------------|
| dense_13 (Dense)              | (None, 256)               |         131,328 | dense_12[0][0]             |
|-------------------------------+---------------------------+-----------------+----------------------------|
| dense_14 (Dense)              | (None, 128)               |          32,896 | dense_13[0][0]             |
|-------------------------------+---------------------------+-----------------+----------------------------|
| dense_15 (Dense)              | (None, 128)               |          32,896 | dense_13[0][0]             |
|-------------------------------+---------------------------+-----------------+----------------------------|
| dense_16 (Dense)              | (None, 128)               |          32,896 | dense_13[0][0]             |
|-------------------------------+---------------------------+-----------------+----------------------------|
| dense_17 (Dense)              | (None, 128)               |          32,896 | dense_13[0][0]             |
|-------------------------------+---------------------------+-----------------+----------------------------|
| dense_18 (Dense)              | (None, 128)               |          32,896 | dense_13[0][0]             |
|-------------------------------+---------------------------+-----------------+----------------------------|
| dense_19 (Dense)              | (None, 128)               |          32,896 | dense_13[0][0]             |
|-------------------------------+---------------------------+-----------------+----------------------------|
| dense_20 (Dense)              | (None, 128)               |          32,896 | dense_13[0][0]             |
|-------------------------------+---------------------------+-----------------+----------------------------|
| dense_21 (Dense)              | (None, 128)               |          32,896 | dense_13[0][0]             |
|-------------------------------+---------------------------+-----------------+----------------------------|
| dense_22 (Dense)              | (None, 128)               |          32,896 | dense_13[0][0]             |
|-------------------------------+---------------------------+-----------------+----------------------------|
| dense_23 (Dense)              | (None, 128)               |          32,896 | dense_13[0][0]             |
|-------------------------------+---------------------------+-----------------+----------------------------|
| car_ms_res_nb (Dense)         | (None, 1)                 |             129 | dense_14[0][0]             |
|-------------------------------+---------------------------+-----------------+----------------------------|
| car_ms_inout_nb (Dense)       | (None, 1)                 |             129 | dense_15[0][0]             |
|-------------------------------+---------------------------+-----------------+----------------------------|
| car_ms_idf_nb (Dense)         | (None, 1)                 |             129 | dense_16[0][0]             |
|-------------------------------+---------------------------+-----------------+----------------------------|
| att_res (Dense)               | (None, 1)                 |             129 | dense_17[0][0]             |
|-------------------------------+---------------------------+-----------------+----------------------------|
| att_inout (Dense)             | (None, 1)                 |             129 | dense_18[0][0]             |
|-------------------------------+---------------------------+-----------------+----------------------------|
| att_idf (Dense)               | (None, 1)                 |             129 | dense_19[0][0]             |
|-------------------------------+---------------------------+-----------------+----------------------------|
| er_0 (Dense)                  | (None, 1)                 |             129 | dense_20[0][0]             |
|-------------------------------+---------------------------+-----------------+----------------------------|
| er_10 (Dense)                 | (None, 1)                 |             129 | dense_21[0][0]             |
|-------------------------------+---------------------------+-----------------+----------------------------|
| er_20 (Dense)                 | (None, 1)                 |             129 | dense_22[0][0]             |
|-------------------------------+---------------------------+-----------------+----------------------------|
| er_idf (Dense)                | (None, 1)                 |             129 | dense_23[0][0]             |
+----------------------------------------------------------------------------------------------------------+
 Total params: 1,404,704 (5.36 MB)
 Trainable params: 468,234 (1.79 MB)
 Non-trainable params: 0 (0.00 B)
 Optimizer params: 936,470 (3.57 MB)

root_mean_squared_error : [… Loss : [… Validation root_mean_squared_error : [… Validation loss : [… Train : [['1000
…
