…
All outputs : {'car_ms_res_nb': 0.7821504473686218, 'car_ms_inout_nb': 0.6122317314147949, 'car_ms_idf_nb': 0.15962442755699158, 'att_res': 0.4059266448020935, 'att_inout': 0.49544069170951843, 'att_idf': 0.182874396443367, 'er_0': 1.0616414546966553, 'er_10': 0.257868230342865, 'er_20': 0.3379872739315033, 'er_idf': 0.10534565150737762}
Summary :

Model: "functional_5"
+----------------------------------------------------------------------------------------------------------+
| Layer (type)                  | Output Shape              |         Param # | Connected to               |
|-------------------------------+---------------------------+-----------------+----------------------------|
| input_layer_5 (InputLayer)    | (None, 12)                |               0 | -                          |
|-------------------------------+---------------------------+-----------------+----------------------------|
| dense_60 (Dense)              | (None, 512)               |           6,656 | input_layer_5[0][0]        |
|-------------------------------+---------------------------+-----------------+----------------------------|
| dense_61 (Dense)              | (None, 256)               |         131,328 | dense_60[0][0]             |
|-------------------------------+---------------------------+-----------------+----------------------------|
| dense_62 (Dense)              | (None, 128)               |          32,896 | dense_61[0][0]             |
|-------------------------------+---------------------------+-----------------+----------------------------|
| dense_63 (Dense)              | (None, 128)               |          32,896 | dense_61[0][0]             |
|-------------------------------+---------------------------+-----------------+----------------------------|
| dense_64 (Dense)              | (None, 128)               |          32,896 | dense_61[0][0]             |
|-------------------------------+---------------------------+-----------------+----------------------------|
| dense_65 (Dense)              | (None, 128)               |          32,896 | dense_61[0][0]             |
|-------------------------------+---------------------------+-----------------+----------------------------|
| dense_66 (Dense)              | (None, 128)               |          32,896 | dense_61[0][0]             |
|-------------------------------+---------------------------+-----------------+----------------------------|
| dense_67 (Dense)              | (None, 128)               |          32,896 | dense_61[0][0]             |
|-------------------------------+---------------------------+-----------------+----------------------------|
| dense_68 (Dense)              | (None, 128)               |          32,896 | dense_61[0][0]             |
|-------------------------------+---------------------------+-----------------+----------------------------|
| dense_69 (Dense)              | (None, 128)               |          32,896 | dense_61[0][0]             |
|-------------------------------+---------------------------+-----------------+----------------------------|
| dense_70 (Dense)              | (None, 128)               |          32,896 | dense_61[0][0]             |
|-------------------------------+---------------------------+-----------------+----------------------------|
| dense_71 (Dense)              | (None, 128)               |          32,896 | dense_61[0][0]             |
|-------------------------------+---------------------------+-----------------+----------------------------|
| car_ms_res_nb (Dense)         | (None, 1)                 |             129 | dense_62[0][0]             |
|-------------------------------+---------------------------+-----------------+----------------------------|
| car_ms_inout_nb (Dense)       | (None, 1)                 |             129 | dense_63[0][0]             |
|-------------------------------+---------------------------+-----------------+----------------------------|
| car_ms_idf_nb (Dense)         | (None, 1)                 |             129 | dense_64[0][0]             |
|-------------------------------+---------------------------+-----------------+----------------------------|
| att_res (Dense)               | (None, 1)                 |             129 | dense_65[0][0]             |
|-------------------------------+---------------------------+-----------------+----------------------------|
| att_inout (Dense)             | (None, 1)                 |             129 | dense_66[0][0]             |
|-------------------------------+---------------------------+-----------------+----------------------------|
| att_idf (Dense)               | (None, 1)                 |             129 | dense_67[0][0]             |
|-------------------------------+---------------------------+-----------------+----------------------------|
| er_0 (Dense)                  | (None, 1)                 |             129 | dense_68[0][0]             |
|-------------------------------+---------------------------+-----------------+----------------------------|
| er_10 (Dense)                 | (None, 1)                 |             129 | dense_69[0][0]             |
|-------------------------------+---------------------------+-----------------+----------------------------|
| er_20 (Dense)                 | (None, 1)                 |             129 | dense_70[0][0]             |
|-------------------------------+---------------------------+-----------------+----------------------------|
| er_idf (Dense)                | (None, 1)                 |             129 | dense_71[0][0]             |
+----------------------------------------------------------------------------------------------------------+
 Total params: 1,404,704 (5.36 MB)
 Trainable params: 468,234 (1.79 MB)
 Non-trainable params: 0 (0.00 B)
 Optimizer params: 936,470 (3.57 MB)

root_mean_squared_error : [… Loss : [… Validation root_mean_squared_error : [… Validation loss : [… Train : [['1000
…
