…
Val size : 25
Test size : 25
Split type : dep
Additional info : [['92', '75', '9293', '9394'], ['93', '7594'], ['94', '7592']]

Test root_mean_squared_error : 4.084830233454705
Test loss : 30.652568817138672

Summary :

Model: "functional_80"
+----------------------------------------------------------------------------------------------------------+
| Layer (type)                  | Output Shape              |         Param # | Connected to               |
|-------------------------------+---------------------------+-----------------+----------------------------|
| input_layer_80 (InputLayer)   | (None, 12)                |               0 | -                          |
|-------------------------------+---------------------------+-----------------+----------------------------|
| dense_960 (Dense)             | (None, 512)               |           6,656 | input_layer_80[0][0]       |
|-------------------------------+---------------------------+-----------------+----------------------------|
| dense_961 (Dense)             | (None, 256)               |         131,328 | dense_960[0][0]            |
|-------------------------------+---------------------------+-----------------+----------------------------|
| dense_962 (Dense)             | (None, 128)               |          32,896 | dense_961[0][0]            |
|-------------------------------+---------------------------+-----------------+----------------------------|
| dense_963 (Dense)             | (None, 128)               |          32,896 | dense_961[0][0]            |
|-------------------------------+---------------------------+-----------------+----------------------------|
| dense_964 (Dense)             | (None, 128)               |          32,896 | dense_961[0][0]            |
|-------------------------------+---------------------------+-----------------+----------------------------|
| dense_965 (Dense)             | (None, 128)               |          32,896 | dense_961[0][0]            |
|-------------------------------+---------------------------+-----------------+----------------------------|
| dense_966 (Dense)             | (None, 128)               |          32,896 | dense_961[0][0]            |
|-------------------------------+---------------------------+-----------------+----------------------------|
| dense_967 (Dense)             | (None, 128)               |          32,896 | dense_961[0][0]            |
|-------------------------------+---------------------------+-----------------+----------------------------|
| dense_968 (Dense)             | (None, 128)               |          32,896 | dense_961[0][0]            |
|-------------------------------+---------------------------+-----------------+----------------------------|
| dense_969 (Dense)             | (None, 128)               |          32,896 | dense_961[0][0]            |
|-------------------------------+---------------------------+-----------------+----------------------------|
| dense_970 (Dense)             | (None, 128)               |          32,896 | dense_961[0][0]            |
|-------------------------------+---------------------------+-----------------+----------------------------|
| dense_971 (Dense)             | (None, 128)               |          32,896 | dense_961[0][0]            |
|-------------------------------+---------------------------+-----------------+----------------------------|
| car_ms_res_nb (Dense)         | (None, 1)                 |             129 | dense_962[0][0]            |
|-------------------------------+---------------------------+-----------------+----------------------------|
| car_ms_inout_nb (Dense)       | (None, 1)                 |             129 | dense_963[0][0]            |
|-------------------------------+---------------------------+-----------------+----------------------------|
| car_ms_idf_nb (Dense)         | (None, 1)                 |             129 | dense_964[0][0]            |
|-------------------------------+---------------------------+-----------------+----------------------------|
| att_res (Dense)               | (None, 1)                 |             129 | dense_965[0][0]            |
|-------------------------------+---------------------------+-----------------+----------------------------|
| att_inout (Dense)             | (None, 1)                 |             129 | dense_966[0][0]            |
|-------------------------------+---------------------------+-----------------+----------------------------|
| att_idf (Dense)               | (None, 1)                 |             129 | dense_967[0][0]            |
|-------------------------------+---------------------------+-----------------+----------------------------|
| er_0 (Dense)                  | (None, 1)                 |             129 | dense_968[0][0]            |
|-------------------------------+---------------------------+-----------------+----------------------------|
| er_10 (Dense)                 | (None, 1)                 |             129 | dense_969[0][0]            |
|-------------------------------+---------------------------+-----------------+----------------------------|
| er_20 (Dense)                 | (None, 1)                 |             129 | dense_970[0][0]            |
|-------------------------------+---------------------------+-----------------+----------------------------|
| er_idf (Dense)                | (None, 1)                 |             129 | dense_971[0][0]            |
+----------------------------------------------------------------------------------------------------------+
 Total params: 1,404,704 (5.36 MB)
 Trainable params: 468,234 (1.79 MB)
 Non-trainable params: 0 (0.00 B)
 Optimizer params: 936,470 (3.57 MB)

root_mean_squared_error : [… Loss : [… Validation root_mean_squared_error : [… Validation loss : [… Train : [['1000
…
